{"class_name": "Functional", "config": {"name": "encoder", "layers": [{"class_name": "InputLayer", "config": {"batch_input_shape": [null, 30], "dtype": "int32", "sparse": false, "ragged": false, "name": "input_1"}, "name": "input_1", "inbound_nodes": []}, {"class_name": "Embedding", "config": {"name": "embedding", "trainable": true, "batch_input_shape": [null, null], "dtype": "float32", "input_dim": 78, "output_dim": 64, "embeddings_initializer": {"class_name": "RandomUniform", "config": {"minval": -0.05, "maxval": 0.05, "seed": null}}, "embeddings_regularizer": null, "activity_regularizer": null, "embeddings_constraint": null, "mask_zero": true, "input_length": null}, "name": "embedding", "inbound_nodes": [[["input_1", 0, 0, {}]]]}, {"class_name": "LSTM", "config": {"name": "lstm", "trainable": true, "dtype": "float32", "return_sequences": false, "return_state": false, "go_backwards": false, "stateful": false, "unroll": false, "time_major": false, "units": 64, "activation": "tanh", "recurrent_activation": "sigmoid", "use_bias": true, "kernel_initializer": {"class_name": "GlorotUniform", "config": {"seed": null}, "shared_object_id": 3}, "recurrent_initializer": {"class_name": "Orthogonal", "config": {"gain": 1.0, "seed": null}, "shared_object_id": 4}, "bias_initializer": {"class_name": "Zeros", "config": {}, "shared_object_id": 5}, "unit_forget_bias": true, "kernel_regularizer": null, "recurrent_regularizer": null, "bias_regularizer": null, "activity_regularizer": null, "kernel_constraint": null, "recurrent_constraint": null, "bias_constraint": null, "dropout": 0.0, "recurrent_dropout": 0.0, "implementation": 2}, "name": "lstm", "inbound_nodes": [[["embedding", 0, 0, {}]]]}, {"class_name": "Dense", "config": {"name": "z_mean", "trainable": true, "dtype": "float32", "units": 64, "activation": "linear", "use_bias": true, "kernel_initializer": {"class_name": "GlorotUniform", "config": {"seed": null}}, "bias_initializer": {"class_name": "Zeros", "config": {}}, "kernel_regularizer": null, "bias_regularizer": null, "activity_regularizer": null, "kernel_constraint": null, "bias_constraint": null}, "name": "z_mean", "inbound_nodes": [[["lstm", 0, 0, {}]]]}, {"class_name": "Dense", "config": {"name": "z_log_var", "trainable": true, "dtype": "float32", "units": 64, "activation": "linear", "use_bias": true, "kernel_initializer": {"class_name": "GlorotUniform", "config": {"seed": null}}, "bias_initializer": {"class_name": "Zeros", "config": {}}, "kernel_regularizer": null, "bias_regularizer": null, "activity_regularizer": null, "kernel_constraint": null, "bias_constraint": null}, "name": "z_log_var", "inbound_nodes": [[["lstm", 0, 0, {}]]]}, {"class_name": "Sampling", "config": {"name": "sampling", "trainable": true, "dtype": "float32"}, "name": "sampling", "inbound_nodes": [[["z_mean", 0, 0, {}], ["z_log_var", 0, 0, {}]]]}], "input_layers": [["input_1", 0, 0]], "output_layers": [["z_mean", 0, 0], ["z_log_var", 0, 0], ["sampling", 0, 0]]}, "keras_version": "2.5.0", "backend": "tensorflow"}